{"keras_version": "1.2.2", "config": {"input_layers": [["input_1", 0, 0]], "layers": [{"config": {"input_dtype": "float32", "batch_input_shape": [null, 224, 224, 3], "sparse": false, "name": "input_1"}, "inbound_nodes": [], "class_name": "InputLayer", "name": "input_1"}, {"config": {"padding": [3, 3], "trainable": false, "name": "zeropadding2d_1"}, "inbound_nodes": [[["input_1", 0, 0]]], "class_name": "ZeroPadding2D", "name": "zeropadding2d_1"}, {"config": {"nb_filter": 64, "dim_ordering": "tf", "name": "conv1", "nb_col": 7, "W_constraint": null, "bias": true, "b_constraint": null, "trainable": false, "activation": "linear", "init": "glorot_uniform", "W_regularizer": null, "activity_regularizer": null, "nb_row": 7, "subsample": [2, 2], "border_mode": "valid", "b_regularizer": null}, "inbound_nodes": [[["zeropadding2d_1", 0, 0]]], "class_name": "Convolution2D", "name": "conv1"}, {"config": {"trainable": false, "axis": 3, "momentum": 0.99, "beta_regularizer": null, "name": "bn_conv1", "mode": 0, "epsilon": 0.001, "gamma_regularizer": null}, "inbound_nodes": [[["conv1", 0, 0]]], "class_name": "BatchNormalization", "name": "bn_conv1"}, {"config": {"trainable": false, "activation": "relu", "name": "activation_1"}, "inbound_nodes": [[["bn_conv1", 0, 0]]], "class_name": "Activation", "name": "activation_1"}, {"config": {"trainable": false, "dim_ordering": "tf", "name": "maxpooling2d_1", "pool_size": [3, 3], "border_mode": "valid", "strides": [2, 2]}, "inbound_nodes": [[["activation_1", 0, 0]]], "class_name": "MaxPooling2D", "name": "maxpooling2d_1"}, {"config": {"nb_filter": 64, "dim_ordering": "tf", "name": "res2a_branch2a", "nb_col": 1, "W_constraint": null, "bias": true, "b_constraint": null, "trainable": false, "activation": "linear", "init": "glorot_uniform", "W_regularizer": null, "activity_regularizer": null, "nb_row": 1, "subsample": [1, 1], "border_mode": "valid", "b_regularizer": null}, "inbound_nodes": [[["maxpooling2d_1", 0, 0]]], "class_name": "Convolution2D", "name": "res2a_branch2a"}, {"config": {"trainable": false, "axis": 3, "momentum": 0.99, "beta_regularizer": null, "name": "bn2a_branch2a", "mode": 0, "epsilon": 0.001, "gamma_regularizer": null}, "inbound_nodes": [[["res2a_branch2a", 0, 0]]], "class_name": "BatchNormalization", "name": "bn2a_branch2a"}, {"config": {"trainable": false, "activation": "relu", "name": "activation_2"}, "inbound_nodes": [[["bn2a_branch2a", 0, 0]]], "class_name": "Activation", "name": "activation_2"}, {"config": {"nb_filter": 64, "dim_ordering": "tf", "name": "res2a_branch2b", "nb_col": 3, "W_constraint": null, "bias": true, "b_constraint": null, "trainable": false, "activation": "linear", "init": "glorot_uniform", "W_regularizer": null, "activity_regularizer": null, "nb_row": 3, "subsample": [1, 1], "border_mode": "same", "b_regularizer": null}, "inbound_nodes": [[["activation_2", 0, 0]]], "class_name": "Convolution2D", "name": "res2a_branch2b"}, {"config": {"trainable": false, "axis": 3, "momentum": 0.99, "beta_regularizer": null, "name": "bn2a_branch2b", "mode": 0, "epsilon": 0.001, "gamma_regularizer": null}, "inbound_nodes": [[["res2a_branch2b", 0, 0]]], "class_name": "BatchNormalization", "name": "bn2a_branch2b"}, {"config": {"trainable": false, "activation": "relu", "name": "activation_3"}, "inbound_nodes": [[["bn2a_branch2b", 0, 0]]], "class_name": "Activation", "name": "activation_3"}, {"config": {"nb_filter": 256, "dim_ordering": "tf", "name": "res2a_branch2c", "nb_col": 1, "W_constraint": null, "bias": true, "b_constraint": null, "trainable": false, "activation": "linear", "init": "glorot_uniform", "W_regularizer": null, "activity_regularizer": null, "nb_row": 1, "subsample": [1, 1], "border_mode": "valid", "b_regularizer": null}, "inbound_nodes": [[["activation_3", 0, 0]]], "class_name": "Convolution2D", "name": "res2a_branch2c"}, {"config": {"nb_filter": 256, "dim_ordering": "tf", "name": "res2a_branch1", "nb_col": 1, "W_constraint": null, "bias": true, "b_constraint": null, "trainable": false, "activation": "linear", "init": "glorot_uniform", "W_regularizer": null, "activity_regularizer": null, "nb_row": 1, "subsample": [1, 1], "border_mode": "valid", "b_regularizer": null}, "inbound_nodes": [[["maxpooling2d_1", 0, 0]]], "class_name": "Convolution2D", "name": "res2a_branch1"}, {"config": {"trainable": false, "axis": 3, "momentum": 0.99, "beta_regularizer": null, "name": "bn2a_branch2c", "mode": 0, "epsilon": 0.001, "gamma_regularizer": null}, "inbound_nodes": [[["res2a_branch2c", 0, 0]]], "class_name": "BatchNormalization", "name": "bn2a_branch2c"}, {"config": {"trainable": false, "axis": 3, "momentum": 0.99, "beta_regularizer": null, "name": "bn2a_branch1", "mode": 0, "epsilon": 0.001, "gamma_regularizer": null}, "inbound_nodes": [[["res2a_branch1", 0, 0]]], "class_name": "BatchNormalization", "name": "bn2a_branch1"}, {"config": {"output_mask_type": "raw", "arguments": {}, "concat_axis": -1, "output_shape": null, "name": "merge_1", "output_mask": null, "dot_axes": -1, "mode": "sum", "mode_type": "raw", "output_shape_type": "raw"}, "inbound_nodes": [[["bn2a_branch2c", 0, 0], ["bn2a_branch1", 0, 0]]], "class_name": "Merge", "name": "merge_1"}, {"config": {"trainable": false, "activation": "relu", "name": "activation_4"}, "inbound_nodes": [[["merge_1", 0, 0]]], "class_name": "Activation", "name": "activation_4"}, {"config": {"nb_filter": 64, "dim_ordering": "tf", "name": "res2b_branch2a", "nb_col": 1, "W_constraint": null, "bias": true, "b_constraint": null, "trainable": false, "activation": "linear", "init": "glorot_uniform", "W_regularizer": null, "activity_regularizer": null, "nb_row": 1, "subsample": [1, 1], "border_mode": "valid", "b_regularizer": null}, "inbound_nodes": [[["activation_4", 0, 0]]], "class_name": "Convolution2D", "name": "res2b_branch2a"}, {"config": {"trainable": false, "axis": 3, "momentum": 0.99, "beta_regularizer": null, "name": "bn2b_branch2a", "mode": 0, "epsilon": 0.001, "gamma_regularizer": null}, "inbound_nodes": [[["res2b_branch2a", 0, 0]]], "class_name": "BatchNormalization", "name": "bn2b_branch2a"}, {"config": {"trainable": false, "activation": "relu", "name": "activation_5"}, "inbound_nodes": [[["bn2b_branch2a", 0, 0]]], "class_name": "Activation", "name": "activation_5"}, {"config": {"nb_filter": 64, "dim_ordering": "tf", "name": "res2b_branch2b", "nb_col": 3, "W_constraint": null, "bias": true, "b_constraint": null, "trainable": false, "activation": "linear", "init": "glorot_uniform", "W_regularizer": null, "activity_regularizer": null, "nb_row": 3, "subsample": [1, 1], "border_mode": "same", "b_regularizer": null}, "inbound_nodes": [[["activation_5", 0, 0]]], "class_name": "Convolution2D", "name": "res2b_branch2b"}, {"config": {"trainable": false, "axis": 3, "momentum": 0.99, "beta_regularizer": null, "name": "bn2b_branch2b", "mode": 0, "epsilon": 0.001, "gamma_regularizer": null}, "inbound_nodes": [[["res2b_branch2b", 0, 0]]], "class_name": "BatchNormalization", "name": "bn2b_branch2b"}, {"config": {"trainable": false, "activation": "relu", "name": "activation_6"}, "inbound_nodes": [[["bn2b_branch2b", 0, 0]]], "class_name": "Activation", "name": "activation_6"}, {"config": {"nb_filter": 256, "dim_ordering": "tf", "name": "res2b_branch2c", "nb_col": 1, "W_constraint": null, "bias": true, "b_constraint": null, "trainable": false, "activation": "linear", "init": "glorot_uniform", "W_regularizer": null, "activity_regularizer": null, "nb_row": 1, "subsample": [1, 1], "border_mode": "valid", "b_regularizer": null}, "inbound_nodes": [[["activation_6", 0, 0]]], "class_name": "Convolution2D", "name": "res2b_branch2c"}, {"config": {"trainable": false, "axis": 3, "momentum": 0.99, "beta_regularizer": null, "name": "bn2b_branch2c", "mode": 0, "epsilon": 0.001, "gamma_regularizer": null}, "inbound_nodes": [[["res2b_branch2c", 0, 0]]], "class_name": "BatchNormalization", "name": "bn2b_branch2c"}, {"config": {"output_mask_type": "raw", "arguments": {}, "concat_axis": -1, "output_shape": null, "name": "merge_2", "output_mask": null, "dot_axes": -1, "mode": "sum", "mode_type": "raw", "output_shape_type": "raw"}, "inbound_nodes": [[["bn2b_branch2c", 0, 0], ["activation_4", 0, 0]]], "class_name": "Merge", "name": "merge_2"}, {"config": {"trainable": false, "activation": "relu", "name": "activation_7"}, "inbound_nodes": [[["merge_2", 0, 0]]], "class_name": "Activation", "name": "activation_7"}, {"config": {"nb_filter": 64, "dim_ordering": "tf", "name": "res2c_branch2a", "nb_col": 1, "W_constraint": null, "bias": true, "b_constraint": null, "trainable": false, "activation": "linear", "init": "glorot_uniform", "W_regularizer": null, "activity_regularizer": null, "nb_row": 1, "subsample": [1, 1], "border_mode": "valid", "b_regularizer": null}, "inbound_nodes": [[["activation_7", 0, 0]]], "class_name": "Convolution2D", "name": "res2c_branch2a"}, {"config": {"trainable": false, "axis": 3, "momentum": 0.99, "beta_regularizer": null, "name": "bn2c_branch2a", "mode": 0, "epsilon": 0.001, "gamma_regularizer": null}, "inbound_nodes": [[["res2c_branch2a", 0, 0]]], "class_name": "BatchNormalization", "name": "bn2c_branch2a"}, {"config": {"trainable": false, "activation": "relu", "name": "activation_8"}, "inbound_nodes": [[["bn2c_branch2a", 0, 0]]], "class_name": "Activation", "name": "activation_8"}, {"config": {"nb_filter": 64, "dim_ordering": "tf", "name": "res2c_branch2b", "nb_col": 3, "W_constraint": null, "bias": true, "b_constraint": null, "trainable": false, "activation": "linear", "init": "glorot_uniform", "W_regularizer": null, "activity_regularizer": null, "nb_row": 3, "subsample": [1, 1], "border_mode": "same", "b_regularizer": null}, "inbound_nodes": [[["activation_8", 0, 0]]], "class_name": "Convolution2D", "name": "res2c_branch2b"}, {"config": {"trainable": false, "axis": 3, "momentum": 0.99, "beta_regularizer": null, "name": "bn2c_branch2b", "mode": 0, "epsilon": 0.001, "gamma_regularizer": null}, "inbound_nodes": [[["res2c_branch2b", 0, 0]]], "class_name": "BatchNormalization", "name": "bn2c_branch2b"}, {"config": {"trainable": false, "activation": "relu", "name": "activation_9"}, "inbound_nodes": [[["bn2c_branch2b", 0, 0]]], "class_name": "Activation", "name": "activation_9"}, {"config": {"nb_filter": 256, "dim_ordering": "tf", "name": "res2c_branch2c", "nb_col": 1, "W_constraint": null, "bias": true, "b_constraint": null, "trainable": false, "activation": "linear", "init": "glorot_uniform", "W_regularizer": null, "activity_regularizer": null, "nb_row": 1, "subsample": [1, 1], "border_mode": "valid", "b_regularizer": null}, "inbound_nodes": [[["activation_9", 0, 0]]], "class_name": "Convolution2D", "name": "res2c_branch2c"}, {"config": {"trainable": false, "axis": 3, "momentum": 0.99, "beta_regularizer": null, "name": "bn2c_branch2c", "mode": 0, "epsilon": 0.001, "gamma_regularizer": null}, "inbound_nodes": [[["res2c_branch2c", 0, 0]]], "class_name": "BatchNormalization", "name": "bn2c_branch2c"}, {"config": {"output_mask_type": "raw", "arguments": {}, "concat_axis": -1, "output_shape": null, "name": "merge_3", "output_mask": null, "dot_axes": -1, "mode": "sum", "mode_type": "raw", "output_shape_type": "raw"}, "inbound_nodes": [[["bn2c_branch2c", 0, 0], ["activation_7", 0, 0]]], "class_name": "Merge", "name": "merge_3"}, {"config": {"trainable": false, "activation": "relu", "name": "activation_10"}, "inbound_nodes": [[["merge_3", 0, 0]]], "class_name": "Activation", "name": "activation_10"}, {"config": {"nb_filter": 128, "dim_ordering": "tf", "name": "res3a_branch2a", "nb_col": 1, "W_constraint": null, "bias": true, "b_constraint": null, "trainable": false, "activation": "linear", "init": "glorot_uniform", "W_regularizer": null, "activity_regularizer": null, "nb_row": 1, "subsample": [2, 2], "border_mode": "valid", "b_regularizer": null}, "inbound_nodes": [[["activation_10", 0, 0]]], "class_name": "Convolution2D", "name": "res3a_branch2a"}, {"config": {"trainable": false, "axis": 3, "momentum": 0.99, "beta_regularizer": null, "name": "bn3a_branch2a", "mode": 0, "epsilon": 0.001, "gamma_regularizer": null}, "inbound_nodes": [[["res3a_branch2a", 0, 0]]], "class_name": "BatchNormalization", "name": "bn3a_branch2a"}, {"config": {"trainable": false, "activation": "relu", "name": "activation_11"}, "inbound_nodes": [[["bn3a_branch2a", 0, 0]]], "class_name": "Activation", "name": "activation_11"}, {"config": {"nb_filter": 128, "dim_ordering": "tf", "name": "res3a_branch2b", "nb_col": 3, "W_constraint": null, "bias": true, "b_constraint": null, "trainable": false, "activation": "linear", "init": "glorot_uniform", "W_regularizer": null, "activity_regularizer": null, "nb_row": 3, "subsample": [1, 1], "border_mode": "same", "b_regularizer": null}, "inbound_nodes": [[["activation_11", 0, 0]]], "class_name": "Convolution2D", "name": "res3a_branch2b"}, {"config": {"trainable": false, "axis": 3, "momentum": 0.99, "beta_regularizer": null, "name": "bn3a_branch2b", "mode": 0, "epsilon": 0.001, "gamma_regularizer": null}, "inbound_nodes": [[["res3a_branch2b", 0, 0]]], "class_name": "BatchNormalization", "name": "bn3a_branch2b"}, {"config": {"trainable": false, "activation": "relu", "name": "activation_12"}, "inbound_nodes": [[["bn3a_branch2b", 0, 0]]], "class_name": "Activation", "name": "activation_12"}, {"config": {"nb_filter": 512, "dim_ordering": "tf", "name": "res3a_branch2c", "nb_col": 1, "W_constraint": null, "bias": true, "b_constraint": null, "trainable": false, "activation": "linear", "init": "glorot_uniform", "W_regularizer": null, "activity_regularizer": null, "nb_row": 1, "subsample": [1, 1], "border_mode": "valid", "b_regularizer": null}, "inbound_nodes": [[["activation_12", 0, 0]]], "class_name": "Convolution2D", "name": "res3a_branch2c"}, {"config": {"nb_filter": 512, "dim_ordering": "tf", "name": "res3a_branch1", "nb_col": 1, "W_constraint": null, "bias": true, "b_constraint": null, "trainable": false, "activation": "linear", "init": "glorot_uniform", "W_regularizer": null, "activity_regularizer": null, "nb_row": 1, "subsample": [2, 2], "border_mode": "valid", "b_regularizer": null}, "inbound_nodes": [[["activation_10", 0, 0]]], "class_name": "Convolution2D", "name": "res3a_branch1"}, {"config": {"trainable": false, "axis": 3, "momentum": 0.99, "beta_regularizer": null, "name": "bn3a_branch2c", "mode": 0, "epsilon": 0.001, "gamma_regularizer": null}, "inbound_nodes": [[["res3a_branch2c", 0, 0]]], "class_name": "BatchNormalization", "name": "bn3a_branch2c"}, {"config": {"trainable": false, "axis": 3, "momentum": 0.99, "beta_regularizer": null, "name": "bn3a_branch1", "mode": 0, "epsilon": 0.001, "gamma_regularizer": null}, "inbound_nodes": [[["res3a_branch1", 0, 0]]], "class_name": "BatchNormalization", "name": "bn3a_branch1"}, {"config": {"output_mask_type": "raw", "arguments": {}, "concat_axis": -1, "output_shape": null, "name": "merge_4", "output_mask": null, "dot_axes": -1, "mode": "sum", "mode_type": "raw", "output_shape_type": "raw"}, "inbound_nodes": [[["bn3a_branch2c", 0, 0], ["bn3a_branch1", 0, 0]]], "class_name": "Merge", "name": "merge_4"}, {"config": {"trainable": false, "activation": "relu", "name": "activation_13"}, "inbound_nodes": [[["merge_4", 0, 0]]], "class_name": "Activation", "name": "activation_13"}, {"config": {"nb_filter": 128, "dim_ordering": "tf", "name": "res3b_branch2a", "nb_col": 1, "W_constraint": null, "bias": true, "b_constraint": null, "trainable": false, "activation": "linear", "init": "glorot_uniform", "W_regularizer": null, "activity_regularizer": null, "nb_row": 1, "subsample": [1, 1], "border_mode": "valid", "b_regularizer": null}, "inbound_nodes": [[["activation_13", 0, 0]]], "class_name": "Convolution2D", "name": "res3b_branch2a"}, {"config": {"trainable": false, "axis": 3, "momentum": 0.99, "beta_regularizer": null, "name": "bn3b_branch2a", "mode": 0, "epsilon": 0.001, "gamma_regularizer": null}, "inbound_nodes": [[["res3b_branch2a", 0, 0]]], "class_name": "BatchNormalization", "name": "bn3b_branch2a"}, {"config": {"trainable": false, "activation": "relu", "name": "activation_14"}, "inbound_nodes": [[["bn3b_branch2a", 0, 0]]], "class_name": "Activation", "name": "activation_14"}, {"config": {"nb_filter": 128, "dim_ordering": "tf", "name": "res3b_branch2b", "nb_col": 3, "W_constraint": null, "bias": true, "b_constraint": null, "trainable": false, "activation": "linear", "init": "glorot_uniform", "W_regularizer": null, "activity_regularizer": null, "nb_row": 3, "subsample": [1, 1], "border_mode": "same", "b_regularizer": null}, "inbound_nodes": [[["activation_14", 0, 0]]], "class_name": "Convolution2D", "name": "res3b_branch2b"}, {"config": {"trainable": false, "axis": 3, "momentum": 0.99, "beta_regularizer": null, "name": "bn3b_branch2b", "mode": 0, "epsilon": 0.001, "gamma_regularizer": null}, "inbound_nodes": [[["res3b_branch2b", 0, 0]]], "class_name": "BatchNormalization", "name": "bn3b_branch2b"}, {"config": {"trainable": false, "activation": "relu", "name": "activation_15"}, "inbound_nodes": [[["bn3b_branch2b", 0, 0]]], "class_name": "Activation", "name": "activation_15"}, {"config": {"nb_filter": 512, "dim_ordering": "tf", "name": "res3b_branch2c", "nb_col": 1, "W_constraint": null, "bias": true, "b_constraint": null, "trainable": false, "activation": "linear", "init": "glorot_uniform", "W_regularizer": null, "activity_regularizer": null, "nb_row": 1, "subsample": [1, 1], "border_mode": "valid", "b_regularizer": null}, "inbound_nodes": [[["activation_15", 0, 0]]], "class_name": "Convolution2D", "name": "res3b_branch2c"}, {"config": {"trainable": false, "axis": 3, "momentum": 0.99, "beta_regularizer": null, "name": "bn3b_branch2c", "mode": 0, "epsilon": 0.001, "gamma_regularizer": null}, "inbound_nodes": [[["res3b_branch2c", 0, 0]]], "class_name": "BatchNormalization", "name": "bn3b_branch2c"}, {"config": {"output_mask_type": "raw", "arguments": {}, "concat_axis": -1, "output_shape": null, "name": "merge_5", "output_mask": null, "dot_axes": -1, "mode": "sum", "mode_type": "raw", "output_shape_type": "raw"}, "inbound_nodes": [[["bn3b_branch2c", 0, 0], ["activation_13", 0, 0]]], "class_name": "Merge", "name": "merge_5"}, {"config": {"trainable": false, "activation": "relu", "name": "activation_16"}, "inbound_nodes": [[["merge_5", 0, 0]]], "class_name": "Activation", "name": "activation_16"}, {"config": {"nb_filter": 128, "dim_ordering": "tf", "name": "res3c_branch2a", "nb_col": 1, "W_constraint": null, "bias": true, "b_constraint": null, "trainable": false, "activation": "linear", "init": "glorot_uniform", "W_regularizer": null, "activity_regularizer": null, "nb_row": 1, "subsample": [1, 1], "border_mode": "valid", "b_regularizer": null}, "inbound_nodes": [[["activation_16", 0, 0]]], "class_name": "Convolution2D", "name": "res3c_branch2a"}, {"config": {"trainable": false, "axis": 3, "momentum": 0.99, "beta_regularizer": null, "name": "bn3c_branch2a", "mode": 0, "epsilon": 0.001, "gamma_regularizer": null}, "inbound_nodes": [[["res3c_branch2a", 0, 0]]], "class_name": "BatchNormalization", "name": "bn3c_branch2a"}, {"config": {"trainable": false, "activation": "relu", "name": "activation_17"}, "inbound_nodes": [[["bn3c_branch2a", 0, 0]]], "class_name": "Activation", "name": "activation_17"}, {"config": {"nb_filter": 128, "dim_ordering": "tf", "name": "res3c_branch2b", "nb_col": 3, "W_constraint": null, "bias": true, "b_constraint": null, "trainable": false, "activation": "linear", "init": "glorot_uniform", "W_regularizer": null, "activity_regularizer": null, "nb_row": 3, "subsample": [1, 1], "border_mode": "same", "b_regularizer": null}, "inbound_nodes": [[["activation_17", 0, 0]]], "class_name": "Convolution2D", "name": "res3c_branch2b"}, {"config": {"trainable": false, "axis": 3, "momentum": 0.99, "beta_regularizer": null, "name": "bn3c_branch2b", "mode": 0, "epsilon": 0.001, "gamma_regularizer": null}, "inbound_nodes": [[["res3c_branch2b", 0, 0]]], "class_name": "BatchNormalization", "name": "bn3c_branch2b"}, {"config": {"trainable": false, "activation": "relu", "name": "activation_18"}, "inbound_nodes": [[["bn3c_branch2b", 0, 0]]], "class_name": "Activation", "name": "activation_18"}, {"config": {"nb_filter": 512, "dim_ordering": "tf", "name": "res3c_branch2c", "nb_col": 1, "W_constraint": null, "bias": true, "b_constraint": null, "trainable": false, "activation": "linear", "init": "glorot_uniform", "W_regularizer": null, "activity_regularizer": null, "nb_row": 1, "subsample": [1, 1], "border_mode": "valid", "b_regularizer": null}, "inbound_nodes": [[["activation_18", 0, 0]]], "class_name": "Convolution2D", "name": "res3c_branch2c"}, {"config": {"trainable": false, "axis": 3, "momentum": 0.99, "beta_regularizer": null, "name": "bn3c_branch2c", "mode": 0, "epsilon": 0.001, "gamma_regularizer": null}, "inbound_nodes": [[["res3c_branch2c", 0, 0]]], "class_name": "BatchNormalization", "name": "bn3c_branch2c"}, {"config": {"output_mask_type": "raw", "arguments": {}, "concat_axis": -1, "output_shape": null, "name": "merge_6", "output_mask": null, "dot_axes": -1, "mode": "sum", "mode_type": "raw", "output_shape_type": "raw"}, "inbound_nodes": [[["bn3c_branch2c", 0, 0], ["activation_16", 0, 0]]], "class_name": "Merge", "name": "merge_6"}, {"config": {"trainable": false, "activation": "relu", "name": "activation_19"}, "inbound_nodes": [[["merge_6", 0, 0]]], "class_name": "Activation", "name": "activation_19"}, {"config": {"nb_filter": 128, "dim_ordering": "tf", "name": "res3d_branch2a", "nb_col": 1, "W_constraint": null, "bias": true, "b_constraint": null, "trainable": false, "activation": "linear", "init": "glorot_uniform", "W_regularizer": null, "activity_regularizer": null, "nb_row": 1, "subsample": [1, 1], "border_mode": "valid", "b_regularizer": null}, "inbound_nodes": [[["activation_19", 0, 0]]], "class_name": "Convolution2D", "name": "res3d_branch2a"}, {"config": {"trainable": false, "axis": 3, "momentum": 0.99, "beta_regularizer": null, "name": "bn3d_branch2a", "mode": 0, "epsilon": 0.001, "gamma_regularizer": null}, "inbound_nodes": [[["res3d_branch2a", 0, 0]]], "class_name": "BatchNormalization", "name": "bn3d_branch2a"}, {"config": {"trainable": false, "activation": "relu", "name": "activation_20"}, "inbound_nodes": [[["bn3d_branch2a", 0, 0]]], "class_name": "Activation", "name": "activation_20"}, {"config": {"nb_filter": 128, "dim_ordering": "tf", "name": "res3d_branch2b", "nb_col": 3, "W_constraint": null, "bias": true, "b_constraint": null, "trainable": false, "activation": "linear", "init": "glorot_uniform", "W_regularizer": null, "activity_regularizer": null, "nb_row": 3, "subsample": [1, 1], "border_mode": "same", "b_regularizer": null}, "inbound_nodes": [[["activation_20", 0, 0]]], "class_name": "Convolution2D", "name": "res3d_branch2b"}, {"config": {"trainable": false, "axis": 3, "momentum": 0.99, "beta_regularizer": null, "name": "bn3d_branch2b", "mode": 0, "epsilon": 0.001, "gamma_regularizer": null}, "inbound_nodes": [[["res3d_branch2b", 0, 0]]], "class_name": "BatchNormalization", "name": "bn3d_branch2b"}, {"config": {"trainable": false, "activation": "relu", "name": "activation_21"}, "inbound_nodes": [[["bn3d_branch2b", 0, 0]]], "class_name": "Activation", "name": "activation_21"}, {"config": {"nb_filter": 512, "dim_ordering": "tf", "name": "res3d_branch2c", "nb_col": 1, "W_constraint": null, "bias": true, "b_constraint": null, "trainable": false, "activation": "linear", "init": "glorot_uniform", "W_regularizer": null, "activity_regularizer": null, "nb_row": 1, "subsample": [1, 1], "border_mode": "valid", "b_regularizer": null}, "inbound_nodes": [[["activation_21", 0, 0]]], "class_name": "Convolution2D", "name": "res3d_branch2c"}, {"config": {"trainable": false, "axis": 3, "momentum": 0.99, "beta_regularizer": null, "name": "bn3d_branch2c", "mode": 0, "epsilon": 0.001, "gamma_regularizer": null}, "inbound_nodes": [[["res3d_branch2c", 0, 0]]], "class_name": "BatchNormalization", "name": "bn3d_branch2c"}, {"config": {"output_mask_type": "raw", "arguments": {}, "concat_axis": -1, "output_shape": null, "name": "merge_7", "output_mask": null, "dot_axes": -1, "mode": "sum", "mode_type": "raw", "output_shape_type": "raw"}, "inbound_nodes": [[["bn3d_branch2c", 0, 0], ["activation_19", 0, 0]]], "class_name": "Merge", "name": "merge_7"}, {"config": {"trainable": false, "activation": "relu", "name": "activation_22"}, "inbound_nodes": [[["merge_7", 0, 0]]], "class_name": "Activation", "name": "activation_22"}, {"config": {"nb_filter": 256, "dim_ordering": "tf", "name": "res4a_branch2a", "nb_col": 1, "W_constraint": null, "bias": true, "b_constraint": null, "trainable": false, "activation": "linear", "init": "glorot_uniform", "W_regularizer": null, "activity_regularizer": null, "nb_row": 1, "subsample": [2, 2], "border_mode": "valid", "b_regularizer": null}, "inbound_nodes": [[["activation_22", 0, 0]]], "class_name": "Convolution2D", "name": "res4a_branch2a"}, {"config": {"trainable": false, "axis": 3, "momentum": 0.99, "beta_regularizer": null, "name": "bn4a_branch2a", "mode": 0, "epsilon": 0.001, "gamma_regularizer": null}, "inbound_nodes": [[["res4a_branch2a", 0, 0]]], "class_name": "BatchNormalization", "name": "bn4a_branch2a"}, {"config": {"trainable": false, "activation": "relu", "name": "activation_23"}, "inbound_nodes": [[["bn4a_branch2a", 0, 0]]], "class_name": "Activation", "name": "activation_23"}, {"config": {"nb_filter": 256, "dim_ordering": "tf", "name": "res4a_branch2b", "nb_col": 3, "W_constraint": null, "bias": true, "b_constraint": null, "trainable": false, "activation": "linear", "init": "glorot_uniform", "W_regularizer": null, "activity_regularizer": null, "nb_row": 3, "subsample": [1, 1], "border_mode": "same", "b_regularizer": null}, "inbound_nodes": [[["activation_23", 0, 0]]], "class_name": "Convolution2D", "name": "res4a_branch2b"}, {"config": {"trainable": false, "axis": 3, "momentum": 0.99, "beta_regularizer": null, "name": "bn4a_branch2b", "mode": 0, "epsilon": 0.001, "gamma_regularizer": null}, "inbound_nodes": [[["res4a_branch2b", 0, 0]]], "class_name": "BatchNormalization", "name": "bn4a_branch2b"}, {"config": {"trainable": false, "activation": "relu", "name": "activation_24"}, "inbound_nodes": [[["bn4a_branch2b", 0, 0]]], "class_name": "Activation", "name": "activation_24"}, {"config": {"nb_filter": 1024, "dim_ordering": "tf", "name": "res4a_branch2c", "nb_col": 1, "W_constraint": null, "bias": true, "b_constraint": null, "trainable": false, "activation": "linear", "init": "glorot_uniform", "W_regularizer": null, "activity_regularizer": null, "nb_row": 1, "subsample": [1, 1], "border_mode": "valid", "b_regularizer": null}, "inbound_nodes": [[["activation_24", 0, 0]]], "class_name": "Convolution2D", "name": "res4a_branch2c"}, {"config": {"nb_filter": 1024, "dim_ordering": "tf", "name": "res4a_branch1", "nb_col": 1, "W_constraint": null, "bias": true, "b_constraint": null, "trainable": false, "activation": "linear", "init": "glorot_uniform", "W_regularizer": null, "activity_regularizer": null, "nb_row": 1, "subsample": [2, 2], "border_mode": "valid", "b_regularizer": null}, "inbound_nodes": [[["activation_22", 0, 0]]], "class_name": "Convolution2D", "name": "res4a_branch1"}, {"config": {"trainable": false, "axis": 3, "momentum": 0.99, "beta_regularizer": null, "name": "bn4a_branch2c", "mode": 0, "epsilon": 0.001, "gamma_regularizer": null}, "inbound_nodes": [[["res4a_branch2c", 0, 0]]], "class_name": "BatchNormalization", "name": "bn4a_branch2c"}, {"config": {"trainable": false, "axis": 3, "momentum": 0.99, "beta_regularizer": null, "name": "bn4a_branch1", "mode": 0, "epsilon": 0.001, "gamma_regularizer": null}, "inbound_nodes": [[["res4a_branch1", 0, 0]]], "class_name": "BatchNormalization", "name": "bn4a_branch1"}, {"config": {"output_mask_type": "raw", "arguments": {}, "concat_axis": -1, "output_shape": null, "name": "merge_8", "output_mask": null, "dot_axes": -1, "mode": "sum", "mode_type": "raw", "output_shape_type": "raw"}, "inbound_nodes": [[["bn4a_branch2c", 0, 0], ["bn4a_branch1", 0, 0]]], "class_name": "Merge", "name": "merge_8"}, {"config": {"trainable": false, "activation": "relu", "name": "activation_25"}, "inbound_nodes": [[["merge_8", 0, 0]]], "class_name": "Activation", "name": "activation_25"}, {"config": {"nb_filter": 256, "dim_ordering": "tf", "name": "res4b_branch2a", "nb_col": 1, "W_constraint": null, "bias": true, "b_constraint": null, "trainable": false, "activation": "linear", "init": "glorot_uniform", "W_regularizer": null, "activity_regularizer": null, "nb_row": 1, "subsample": [1, 1], "border_mode": "valid", "b_regularizer": null}, "inbound_nodes": [[["activation_25", 0, 0]]], "class_name": "Convolution2D", "name": "res4b_branch2a"}, {"config": {"trainable": false, "axis": 3, "momentum": 0.99, "beta_regularizer": null, "name": "bn4b_branch2a", "mode": 0, "epsilon": 0.001, "gamma_regularizer": null}, "inbound_nodes": [[["res4b_branch2a", 0, 0]]], "class_name": "BatchNormalization", "name": "bn4b_branch2a"}, {"config": {"trainable": false, "activation": "relu", "name": "activation_26"}, "inbound_nodes": [[["bn4b_branch2a", 0, 0]]], "class_name": "Activation", "name": "activation_26"}, {"config": {"nb_filter": 256, "dim_ordering": "tf", "name": "res4b_branch2b", "nb_col": 3, "W_constraint": null, "bias": true, "b_constraint": null, "trainable": false, "activation": "linear", "init": "glorot_uniform", "W_regularizer": null, "activity_regularizer": null, "nb_row": 3, "subsample": [1, 1], "border_mode": "same", "b_regularizer": null}, "inbound_nodes": [[["activation_26", 0, 0]]], "class_name": "Convolution2D", "name": "res4b_branch2b"}, {"config": {"trainable": false, "axis": 3, "momentum": 0.99, "beta_regularizer": null, "name": "bn4b_branch2b", "mode": 0, "epsilon": 0.001, "gamma_regularizer": null}, "inbound_nodes": [[["res4b_branch2b", 0, 0]]], "class_name": "BatchNormalization", "name": "bn4b_branch2b"}, {"config": {"trainable": false, "activation": "relu", "name": "activation_27"}, "inbound_nodes": [[["bn4b_branch2b", 0, 0]]], "class_name": "Activation", "name": "activation_27"}, {"config": {"nb_filter": 1024, "dim_ordering": "tf", "name": "res4b_branch2c", "nb_col": 1, "W_constraint": null, "bias": true, "b_constraint": null, "trainable": false, "activation": "linear", "init": "glorot_uniform", "W_regularizer": null, "activity_regularizer": null, "nb_row": 1, "subsample": [1, 1], "border_mode": "valid", "b_regularizer": null}, "inbound_nodes": [[["activation_27", 0, 0]]], "class_name": "Convolution2D", "name": "res4b_branch2c"}, {"config": {"trainable": false, "axis": 3, "momentum": 0.99, "beta_regularizer": null, "name": "bn4b_branch2c", "mode": 0, "epsilon": 0.001, "gamma_regularizer": null}, "inbound_nodes": [[["res4b_branch2c", 0, 0]]], "class_name": "BatchNormalization", "name": "bn4b_branch2c"}, {"config": {"output_mask_type": "raw", "arguments": {}, "concat_axis": -1, "output_shape": null, "name": "merge_9", "output_mask": null, "dot_axes": -1, "mode": "sum", "mode_type": "raw", "output_shape_type": "raw"}, "inbound_nodes": [[["bn4b_branch2c", 0, 0], ["activation_25", 0, 0]]], "class_name": "Merge", "name": "merge_9"}, {"config": {"trainable": false, "activation": "relu", "name": "activation_28"}, "inbound_nodes": [[["merge_9", 0, 0]]], "class_name": "Activation", "name": "activation_28"}, {"config": {"nb_filter": 256, "dim_ordering": "tf", "name": "res4c_branch2a", "nb_col": 1, "W_constraint": null, "bias": true, "b_constraint": null, "trainable": false, "activation": "linear", "init": "glorot_uniform", "W_regularizer": null, "activity_regularizer": null, "nb_row": 1, "subsample": [1, 1], "border_mode": "valid", "b_regularizer": null}, "inbound_nodes": [[["activation_28", 0, 0]]], "class_name": "Convolution2D", "name": "res4c_branch2a"}, {"config": {"trainable": false, "axis": 3, "momentum": 0.99, "beta_regularizer": null, "name": "bn4c_branch2a", "mode": 0, "epsilon": 0.001, "gamma_regularizer": null}, "inbound_nodes": [[["res4c_branch2a", 0, 0]]], "class_name": "BatchNormalization", "name": "bn4c_branch2a"}, {"config": {"trainable": false, "activation": "relu", "name": "activation_29"}, "inbound_nodes": [[["bn4c_branch2a", 0, 0]]], "class_name": "Activation", "name": "activation_29"}, {"config": {"nb_filter": 256, "dim_ordering": "tf", "name": "res4c_branch2b", "nb_col": 3, "W_constraint": null, "bias": true, "b_constraint": null, "trainable": false, "activation": "linear", "init": "glorot_uniform", "W_regularizer": null, "activity_regularizer": null, "nb_row": 3, "subsample": [1, 1], "border_mode": "same", "b_regularizer": null}, "inbound_nodes": [[["activation_29", 0, 0]]], "class_name": "Convolution2D", "name": "res4c_branch2b"}, {"config": {"trainable": false, "axis": 3, "momentum": 0.99, "beta_regularizer": null, "name": "bn4c_branch2b", "mode": 0, "epsilon": 0.001, "gamma_regularizer": null}, "inbound_nodes": [[["res4c_branch2b", 0, 0]]], "class_name": "BatchNormalization", "name": "bn4c_branch2b"}, {"config": {"trainable": false, "activation": "relu", "name": "activation_30"}, "inbound_nodes": [[["bn4c_branch2b", 0, 0]]], "class_name": "Activation", "name": "activation_30"}, {"config": {"nb_filter": 1024, "dim_ordering": "tf", "name": "res4c_branch2c", "nb_col": 1, "W_constraint": null, "bias": true, "b_constraint": null, "trainable": false, "activation": "linear", "init": "glorot_uniform", "W_regularizer": null, "activity_regularizer": null, "nb_row": 1, "subsample": [1, 1], "border_mode": "valid", "b_regularizer": null}, "inbound_nodes": [[["activation_30", 0, 0]]], "class_name": "Convolution2D", "name": "res4c_branch2c"}, {"config": {"trainable": false, "axis": 3, "momentum": 0.99, "beta_regularizer": null, "name": "bn4c_branch2c", "mode": 0, "epsilon": 0.001, "gamma_regularizer": null}, "inbound_nodes": [[["res4c_branch2c", 0, 0]]], "class_name": "BatchNormalization", "name": "bn4c_branch2c"}, {"config": {"output_mask_type": "raw", "arguments": {}, "concat_axis": -1, "output_shape": null, "name": "merge_10", "output_mask": null, "dot_axes": -1, "mode": "sum", "mode_type": "raw", "output_shape_type": "raw"}, "inbound_nodes": [[["bn4c_branch2c", 0, 0], ["activation_28", 0, 0]]], "class_name": "Merge", "name": "merge_10"}, {"config": {"trainable": false, "activation": "relu", "name": "activation_31"}, "inbound_nodes": [[["merge_10", 0, 0]]], "class_name": "Activation", "name": "activation_31"}, {"config": {"nb_filter": 256, "dim_ordering": "tf", "name": "res4d_branch2a", "nb_col": 1, "W_constraint": null, "bias": true, "b_constraint": null, "trainable": false, "activation": "linear", "init": "glorot_uniform", "W_regularizer": null, "activity_regularizer": null, "nb_row": 1, "subsample": [1, 1], "border_mode": "valid", "b_regularizer": null}, "inbound_nodes": [[["activation_31", 0, 0]]], "class_name": "Convolution2D", "name": "res4d_branch2a"}, {"config": {"trainable": false, "axis": 3, "momentum": 0.99, "beta_regularizer": null, "name": "bn4d_branch2a", "mode": 0, "epsilon": 0.001, "gamma_regularizer": null}, "inbound_nodes": [[["res4d_branch2a", 0, 0]]], "class_name": "BatchNormalization", "name": "bn4d_branch2a"}, {"config": {"trainable": false, "activation": "relu", "name": "activation_32"}, "inbound_nodes": [[["bn4d_branch2a", 0, 0]]], "class_name": "Activation", "name": "activation_32"}, {"config": {"nb_filter": 256, "dim_ordering": "tf", "name": "res4d_branch2b", "nb_col": 3, "W_constraint": null, "bias": true, "b_constraint": null, "trainable": false, "activation": "linear", "init": "glorot_uniform", "W_regularizer": null, "activity_regularizer": null, "nb_row": 3, "subsample": [1, 1], "border_mode": "same", "b_regularizer": null}, "inbound_nodes": [[["activation_32", 0, 0]]], "class_name": "Convolution2D", "name": "res4d_branch2b"}, {"config": {"trainable": false, "axis": 3, "momentum": 0.99, "beta_regularizer": null, "name": "bn4d_branch2b", "mode": 0, "epsilon": 0.001, "gamma_regularizer": null}, "inbound_nodes": [[["res4d_branch2b", 0, 0]]], "class_name": "BatchNormalization", "name": "bn4d_branch2b"}, {"config": {"trainable": false, "activation": "relu", "name": "activation_33"}, "inbound_nodes": [[["bn4d_branch2b", 0, 0]]], "class_name": "Activation", "name": "activation_33"}, {"config": {"nb_filter": 1024, "dim_ordering": "tf", "name": "res4d_branch2c", "nb_col": 1, "W_constraint": null, "bias": true, "b_constraint": null, "trainable": false, "activation": "linear", "init": "glorot_uniform", "W_regularizer": null, "activity_regularizer": null, "nb_row": 1, "subsample": [1, 1], "border_mode": "valid", "b_regularizer": null}, "inbound_nodes": [[["activation_33", 0, 0]]], "class_name": "Convolution2D", "name": "res4d_branch2c"}, {"config": {"trainable": false, "axis": 3, "momentum": 0.99, "beta_regularizer": null, "name": "bn4d_branch2c", "mode": 0, "epsilon": 0.001, "gamma_regularizer": null}, "inbound_nodes": [[["res4d_branch2c", 0, 0]]], "class_name": "BatchNormalization", "name": "bn4d_branch2c"}, {"config": {"output_mask_type": "raw", "arguments": {}, "concat_axis": -1, "output_shape": null, "name": "merge_11", "output_mask": null, "dot_axes": -1, "mode": "sum", "mode_type": "raw", "output_shape_type": "raw"}, "inbound_nodes": [[["bn4d_branch2c", 0, 0], ["activation_31", 0, 0]]], "class_name": "Merge", "name": "merge_11"}, {"config": {"trainable": false, "activation": "relu", "name": "activation_34"}, "inbound_nodes": [[["merge_11", 0, 0]]], "class_name": "Activation", "name": "activation_34"}, {"config": {"nb_filter": 256, "dim_ordering": "tf", "name": "res4e_branch2a", "nb_col": 1, "W_constraint": null, "bias": true, "b_constraint": null, "trainable": false, "activation": "linear", "init": "glorot_uniform", "W_regularizer": null, "activity_regularizer": null, "nb_row": 1, "subsample": [1, 1], "border_mode": "valid", "b_regularizer": null}, "inbound_nodes": [[["activation_34", 0, 0]]], "class_name": "Convolution2D", "name": "res4e_branch2a"}, {"config": {"trainable": false, "axis": 3, "momentum": 0.99, "beta_regularizer": null, "name": "bn4e_branch2a", "mode": 0, "epsilon": 0.001, "gamma_regularizer": null}, "inbound_nodes": [[["res4e_branch2a", 0, 0]]], "class_name": "BatchNormalization", "name": "bn4e_branch2a"}, {"config": {"trainable": false, "activation": "relu", "name": "activation_35"}, "inbound_nodes": [[["bn4e_branch2a", 0, 0]]], "class_name": "Activation", "name": "activation_35"}, {"config": {"nb_filter": 256, "dim_ordering": "tf", "name": "res4e_branch2b", "nb_col": 3, "W_constraint": null, "bias": true, "b_constraint": null, "trainable": false, "activation": "linear", "init": "glorot_uniform", "W_regularizer": null, "activity_regularizer": null, "nb_row": 3, "subsample": [1, 1], "border_mode": "same", "b_regularizer": null}, "inbound_nodes": [[["activation_35", 0, 0]]], "class_name": "Convolution2D", "name": "res4e_branch2b"}, {"config": {"trainable": false, "axis": 3, "momentum": 0.99, "beta_regularizer": null, "name": "bn4e_branch2b", "mode": 0, "epsilon": 0.001, "gamma_regularizer": null}, "inbound_nodes": [[["res4e_branch2b", 0, 0]]], "class_name": "BatchNormalization", "name": "bn4e_branch2b"}, {"config": {"trainable": false, "activation": "relu", "name": "activation_36"}, "inbound_nodes": [[["bn4e_branch2b", 0, 0]]], "class_name": "Activation", "name": "activation_36"}, {"config": {"nb_filter": 1024, "dim_ordering": "tf", "name": "res4e_branch2c", "nb_col": 1, "W_constraint": null, "bias": true, "b_constraint": null, "trainable": false, "activation": "linear", "init": "glorot_uniform", "W_regularizer": null, "activity_regularizer": null, "nb_row": 1, "subsample": [1, 1], "border_mode": "valid", "b_regularizer": null}, "inbound_nodes": [[["activation_36", 0, 0]]], "class_name": "Convolution2D", "name": "res4e_branch2c"}, {"config": {"trainable": false, "axis": 3, "momentum": 0.99, "beta_regularizer": null, "name": "bn4e_branch2c", "mode": 0, "epsilon": 0.001, "gamma_regularizer": null}, "inbound_nodes": [[["res4e_branch2c", 0, 0]]], "class_name": "BatchNormalization", "name": "bn4e_branch2c"}, {"config": {"output_mask_type": "raw", "arguments": {}, "concat_axis": -1, "output_shape": null, "name": "merge_12", "output_mask": null, "dot_axes": -1, "mode": "sum", "mode_type": "raw", "output_shape_type": "raw"}, "inbound_nodes": [[["bn4e_branch2c", 0, 0], ["activation_34", 0, 0]]], "class_name": "Merge", "name": "merge_12"}, {"config": {"trainable": false, "activation": "relu", "name": "activation_37"}, "inbound_nodes": [[["merge_12", 0, 0]]], "class_name": "Activation", "name": "activation_37"}, {"config": {"nb_filter": 256, "dim_ordering": "tf", "name": "res4f_branch2a", "nb_col": 1, "W_constraint": null, "bias": true, "b_constraint": null, "trainable": false, "activation": "linear", "init": "glorot_uniform", "W_regularizer": null, "activity_regularizer": null, "nb_row": 1, "subsample": [1, 1], "border_mode": "valid", "b_regularizer": null}, "inbound_nodes": [[["activation_37", 0, 0]]], "class_name": "Convolution2D", "name": "res4f_branch2a"}, {"config": {"trainable": false, "axis": 3, "momentum": 0.99, "beta_regularizer": null, "name": "bn4f_branch2a", "mode": 0, "epsilon": 0.001, "gamma_regularizer": null}, "inbound_nodes": [[["res4f_branch2a", 0, 0]]], "class_name": "BatchNormalization", "name": "bn4f_branch2a"}, {"config": {"trainable": false, "activation": "relu", "name": "activation_38"}, "inbound_nodes": [[["bn4f_branch2a", 0, 0]]], "class_name": "Activation", "name": "activation_38"}, {"config": {"nb_filter": 256, "dim_ordering": "tf", "name": "res4f_branch2b", "nb_col": 3, "W_constraint": null, "bias": true, "b_constraint": null, "trainable": false, "activation": "linear", "init": "glorot_uniform", "W_regularizer": null, "activity_regularizer": null, "nb_row": 3, "subsample": [1, 1], "border_mode": "same", "b_regularizer": null}, "inbound_nodes": [[["activation_38", 0, 0]]], "class_name": "Convolution2D", "name": "res4f_branch2b"}, {"config": {"trainable": false, "axis": 3, "momentum": 0.99, "beta_regularizer": null, "name": "bn4f_branch2b", "mode": 0, "epsilon": 0.001, "gamma_regularizer": null}, "inbound_nodes": [[["res4f_branch2b", 0, 0]]], "class_name": "BatchNormalization", "name": "bn4f_branch2b"}, {"config": {"trainable": false, "activation": "relu", "name": "activation_39"}, "inbound_nodes": [[["bn4f_branch2b", 0, 0]]], "class_name": "Activation", "name": "activation_39"}, {"config": {"nb_filter": 1024, "dim_ordering": "tf", "name": "res4f_branch2c", "nb_col": 1, "W_constraint": null, "bias": true, "b_constraint": null, "trainable": false, "activation": "linear", "init": "glorot_uniform", "W_regularizer": null, "activity_regularizer": null, "nb_row": 1, "subsample": [1, 1], "border_mode": "valid", "b_regularizer": null}, "inbound_nodes": [[["activation_39", 0, 0]]], "class_name": "Convolution2D", "name": "res4f_branch2c"}, {"config": {"trainable": false, "axis": 3, "momentum": 0.99, "beta_regularizer": null, "name": "bn4f_branch2c", "mode": 0, "epsilon": 0.001, "gamma_regularizer": null}, "inbound_nodes": [[["res4f_branch2c", 0, 0]]], "class_name": "BatchNormalization", "name": "bn4f_branch2c"}, {"config": {"output_mask_type": "raw", "arguments": {}, "concat_axis": -1, "output_shape": null, "name": "merge_13", "output_mask": null, "dot_axes": -1, "mode": "sum", "mode_type": "raw", "output_shape_type": "raw"}, "inbound_nodes": [[["bn4f_branch2c", 0, 0], ["activation_37", 0, 0]]], "class_name": "Merge", "name": "merge_13"}, {"config": {"trainable": false, "activation": "relu", "name": "activation_40"}, "inbound_nodes": [[["merge_13", 0, 0]]], "class_name": "Activation", "name": "activation_40"}, {"config": {"nb_filter": 512, "dim_ordering": "tf", "name": "res5a_branch2a", "nb_col": 1, "W_constraint": null, "bias": true, "b_constraint": null, "trainable": false, "activation": "linear", "init": "glorot_uniform", "W_regularizer": null, "activity_regularizer": null, "nb_row": 1, "subsample": [2, 2], "border_mode": "valid", "b_regularizer": null}, "inbound_nodes": [[["activation_40", 0, 0]]], "class_name": "Convolution2D", "name": "res5a_branch2a"}, {"config": {"trainable": false, "axis": 3, "momentum": 0.99, "beta_regularizer": null, "name": "bn5a_branch2a", "mode": 0, "epsilon": 0.001, "gamma_regularizer": null}, "inbound_nodes": [[["res5a_branch2a", 0, 0]]], "class_name": "BatchNormalization", "name": "bn5a_branch2a"}, {"config": {"trainable": false, "activation": "relu", "name": "activation_41"}, "inbound_nodes": [[["bn5a_branch2a", 0, 0]]], "class_name": "Activation", "name": "activation_41"}, {"config": {"nb_filter": 512, "dim_ordering": "tf", "name": "res5a_branch2b", "nb_col": 3, "W_constraint": null, "bias": true, "b_constraint": null, "trainable": false, "activation": "linear", "init": "glorot_uniform", "W_regularizer": null, "activity_regularizer": null, "nb_row": 3, "subsample": [1, 1], "border_mode": "same", "b_regularizer": null}, "inbound_nodes": [[["activation_41", 0, 0]]], "class_name": "Convolution2D", "name": "res5a_branch2b"}, {"config": {"trainable": false, "axis": 3, "momentum": 0.99, "beta_regularizer": null, "name": "bn5a_branch2b", "mode": 0, "epsilon": 0.001, "gamma_regularizer": null}, "inbound_nodes": [[["res5a_branch2b", 0, 0]]], "class_name": "BatchNormalization", "name": "bn5a_branch2b"}, {"config": {"trainable": false, "activation": "relu", "name": "activation_42"}, "inbound_nodes": [[["bn5a_branch2b", 0, 0]]], "class_name": "Activation", "name": "activation_42"}, {"config": {"nb_filter": 2048, "dim_ordering": "tf", "name": "res5a_branch2c", "nb_col": 1, "W_constraint": null, "bias": true, "b_constraint": null, "trainable": false, "activation": "linear", "init": "glorot_uniform", "W_regularizer": null, "activity_regularizer": null, "nb_row": 1, "subsample": [1, 1], "border_mode": "valid", "b_regularizer": null}, "inbound_nodes": [[["activation_42", 0, 0]]], "class_name": "Convolution2D", "name": "res5a_branch2c"}, {"config": {"nb_filter": 2048, "dim_ordering": "tf", "name": "res5a_branch1", "nb_col": 1, "W_constraint": null, "bias": true, "b_constraint": null, "trainable": false, "activation": "linear", "init": "glorot_uniform", "W_regularizer": null, "activity_regularizer": null, "nb_row": 1, "subsample": [2, 2], "border_mode": "valid", "b_regularizer": null}, "inbound_nodes": [[["activation_40", 0, 0]]], "class_name": "Convolution2D", "name": "res5a_branch1"}, {"config": {"trainable": false, "axis": 3, "momentum": 0.99, "beta_regularizer": null, "name": "bn5a_branch2c", "mode": 0, "epsilon": 0.001, "gamma_regularizer": null}, "inbound_nodes": [[["res5a_branch2c", 0, 0]]], "class_name": "BatchNormalization", "name": "bn5a_branch2c"}, {"config": {"trainable": false, "axis": 3, "momentum": 0.99, "beta_regularizer": null, "name": "bn5a_branch1", "mode": 0, "epsilon": 0.001, "gamma_regularizer": null}, "inbound_nodes": [[["res5a_branch1", 0, 0]]], "class_name": "BatchNormalization", "name": "bn5a_branch1"}, {"config": {"output_mask_type": "raw", "arguments": {}, "concat_axis": -1, "output_shape": null, "name": "merge_14", "output_mask": null, "dot_axes": -1, "mode": "sum", "mode_type": "raw", "output_shape_type": "raw"}, "inbound_nodes": [[["bn5a_branch2c", 0, 0], ["bn5a_branch1", 0, 0]]], "class_name": "Merge", "name": "merge_14"}, {"config": {"trainable": false, "activation": "relu", "name": "activation_43"}, "inbound_nodes": [[["merge_14", 0, 0]]], "class_name": "Activation", "name": "activation_43"}, {"config": {"nb_filter": 512, "dim_ordering": "tf", "name": "res5b_branch2a", "nb_col": 1, "W_constraint": null, "bias": true, "b_constraint": null, "trainable": false, "activation": "linear", "init": "glorot_uniform", "W_regularizer": null, "activity_regularizer": null, "nb_row": 1, "subsample": [1, 1], "border_mode": "valid", "b_regularizer": null}, "inbound_nodes": [[["activation_43", 0, 0]]], "class_name": "Convolution2D", "name": "res5b_branch2a"}, {"config": {"trainable": false, "axis": 3, "momentum": 0.99, "beta_regularizer": null, "name": "bn5b_branch2a", "mode": 0, "epsilon": 0.001, "gamma_regularizer": null}, "inbound_nodes": [[["res5b_branch2a", 0, 0]]], "class_name": "BatchNormalization", "name": "bn5b_branch2a"}, {"config": {"trainable": false, "activation": "relu", "name": "activation_44"}, "inbound_nodes": [[["bn5b_branch2a", 0, 0]]], "class_name": "Activation", "name": "activation_44"}, {"config": {"nb_filter": 512, "dim_ordering": "tf", "name": "res5b_branch2b", "nb_col": 3, "W_constraint": null, "bias": true, "b_constraint": null, "trainable": false, "activation": "linear", "init": "glorot_uniform", "W_regularizer": null, "activity_regularizer": null, "nb_row": 3, "subsample": [1, 1], "border_mode": "same", "b_regularizer": null}, "inbound_nodes": [[["activation_44", 0, 0]]], "class_name": "Convolution2D", "name": "res5b_branch2b"}, {"config": {"trainable": false, "axis": 3, "momentum": 0.99, "beta_regularizer": null, "name": "bn5b_branch2b", "mode": 0, "epsilon": 0.001, "gamma_regularizer": null}, "inbound_nodes": [[["res5b_branch2b", 0, 0]]], "class_name": "BatchNormalization", "name": "bn5b_branch2b"}, {"config": {"trainable": false, "activation": "relu", "name": "activation_45"}, "inbound_nodes": [[["bn5b_branch2b", 0, 0]]], "class_name": "Activation", "name": "activation_45"}, {"config": {"nb_filter": 2048, "dim_ordering": "tf", "name": "res5b_branch2c", "nb_col": 1, "W_constraint": null, "bias": true, "b_constraint": null, "trainable": false, "activation": "linear", "init": "glorot_uniform", "W_regularizer": null, "activity_regularizer": null, "nb_row": 1, "subsample": [1, 1], "border_mode": "valid", "b_regularizer": null}, "inbound_nodes": [[["activation_45", 0, 0]]], "class_name": "Convolution2D", "name": "res5b_branch2c"}, {"config": {"trainable": false, "axis": 3, "momentum": 0.99, "beta_regularizer": null, "name": "bn5b_branch2c", "mode": 0, "epsilon": 0.001, "gamma_regularizer": null}, "inbound_nodes": [[["res5b_branch2c", 0, 0]]], "class_name": "BatchNormalization", "name": "bn5b_branch2c"}, {"config": {"output_mask_type": "raw", "arguments": {}, "concat_axis": -1, "output_shape": null, "name": "merge_15", "output_mask": null, "dot_axes": -1, "mode": "sum", "mode_type": "raw", "output_shape_type": "raw"}, "inbound_nodes": [[["bn5b_branch2c", 0, 0], ["activation_43", 0, 0]]], "class_name": "Merge", "name": "merge_15"}, {"config": {"trainable": true, "activation": "relu", "name": "activation_46"}, "inbound_nodes": [[["merge_15", 0, 0]]], "class_name": "Activation", "name": "activation_46"}, {"config": {"nb_filter": 512, "dim_ordering": "tf", "name": "res5c_branch2a", "nb_col": 1, "W_constraint": null, "bias": true, "b_constraint": null, "trainable": true, "activation": "linear", "init": "glorot_uniform", "W_regularizer": null, "activity_regularizer": null, "nb_row": 1, "subsample": [1, 1], "border_mode": "valid", "b_regularizer": null}, "inbound_nodes": [[["activation_46", 0, 0]]], "class_name": "Convolution2D", "name": "res5c_branch2a"}, {"config": {"trainable": true, "axis": 3, "momentum": 0.99, "beta_regularizer": null, "name": "bn5c_branch2a", "mode": 0, "epsilon": 0.001, "gamma_regularizer": null}, "inbound_nodes": [[["res5c_branch2a", 0, 0]]], "class_name": "BatchNormalization", "name": "bn5c_branch2a"}, {"config": {"trainable": true, "activation": "relu", "name": "activation_47"}, "inbound_nodes": [[["bn5c_branch2a", 0, 0]]], "class_name": "Activation", "name": "activation_47"}, {"config": {"nb_filter": 512, "dim_ordering": "tf", "name": "res5c_branch2b", "nb_col": 3, "W_constraint": null, "bias": true, "b_constraint": null, "trainable": true, "activation": "linear", "init": "glorot_uniform", "W_regularizer": null, "activity_regularizer": null, "nb_row": 3, "subsample": [1, 1], "border_mode": "same", "b_regularizer": null}, "inbound_nodes": [[["activation_47", 0, 0]]], "class_name": "Convolution2D", "name": "res5c_branch2b"}, {"config": {"trainable": true, "axis": 3, "momentum": 0.99, "beta_regularizer": null, "name": "bn5c_branch2b", "mode": 0, "epsilon": 0.001, "gamma_regularizer": null}, "inbound_nodes": [[["res5c_branch2b", 0, 0]]], "class_name": "BatchNormalization", "name": "bn5c_branch2b"}, {"config": {"trainable": true, "activation": "relu", "name": "activation_48"}, "inbound_nodes": [[["bn5c_branch2b", 0, 0]]], "class_name": "Activation", "name": "activation_48"}, {"config": {"nb_filter": 2048, "dim_ordering": "tf", "name": "res5c_branch2c", "nb_col": 1, "W_constraint": null, "bias": true, "b_constraint": null, "trainable": true, "activation": "linear", "init": "glorot_uniform", "W_regularizer": null, "activity_regularizer": null, "nb_row": 1, "subsample": [1, 1], "border_mode": "valid", "b_regularizer": null}, "inbound_nodes": [[["activation_48", 0, 0]]], "class_name": "Convolution2D", "name": "res5c_branch2c"}, {"config": {"trainable": true, "axis": 3, "momentum": 0.99, "beta_regularizer": null, "name": "bn5c_branch2c", "mode": 0, "epsilon": 0.001, "gamma_regularizer": null}, "inbound_nodes": [[["res5c_branch2c", 0, 0]]], "class_name": "BatchNormalization", "name": "bn5c_branch2c"}, {"config": {"output_mask_type": "raw", "arguments": {}, "concat_axis": -1, "output_shape": null, "name": "merge_16", "output_mask": null, "dot_axes": -1, "mode": "sum", "mode_type": "raw", "output_shape_type": "raw"}, "inbound_nodes": [[["bn5c_branch2c", 0, 0], ["activation_46", 0, 0]]], "class_name": "Merge", "name": "merge_16"}, {"config": {"trainable": true, "activation": "relu", "name": "activation_49"}, "inbound_nodes": [[["merge_16", 0, 0]]], "class_name": "Activation", "name": "activation_49"}, {"config": {"trainable": true, "dim_ordering": "tf", "name": "avg_pool", "pool_size": [7, 7], "border_mode": "valid", "strides": [7, 7]}, "inbound_nodes": [[["activation_49", 0, 0]]], "class_name": "AveragePooling2D", "name": "avg_pool"}, {"config": {"trainable": true, "name": "flatten_1"}, "inbound_nodes": [[["avg_pool", 0, 0]]], "class_name": "Flatten", "name": "flatten_1"}, {"config": {"W_constraint": null, "name": "fc1000", "bias": true, "input_dim": 2048, "b_constraint": null, "trainable": true, "activation": "softmax", "b_regularizer": null, "W_regularizer": null, "activity_regularizer": null, "output_dim": 1000, "init": "glorot_uniform"}, "inbound_nodes": [[["flatten_1", 0, 0]]], "class_name": "Dense", "name": "fc1000"}, {"config": {"W_constraint": null, "name": "dense_1", "bias": true, "input_dim": 1000, "b_constraint": null, "trainable": true, "activation": "tanh", "b_regularizer": null, "W_regularizer": null, "activity_regularizer": null, "output_dim": 1000, "init": "glorot_uniform"}, "inbound_nodes": [[["fc1000", 0, 0]]], "class_name": "Dense", "name": "dense_1"}, {"config": {"trainable": true, "axis": 1, "momentum": 0.99, "beta_regularizer": null, "name": "batchnormalization_1", "mode": 0, "epsilon": 0.001, "gamma_regularizer": null}, "inbound_nodes": [[["dense_1", 0, 0]]], "class_name": "BatchNormalization", "name": "batchnormalization_1"}, {"config": {"trainable": true, "p": 0.6, "name": "dropout_1"}, "inbound_nodes": [[["batchnormalization_1", 0, 0]]], "class_name": "Dropout", "name": "dropout_1"}, {"config": {"W_constraint": null, "name": "fc2", "bias": true, "input_dim": 1000, "b_constraint": null, "trainable": true, "activation": "tanh", "b_regularizer": null, "W_regularizer": null, "activity_regularizer": null, "output_dim": 1000, "init": "glorot_uniform"}, "inbound_nodes": [[["dropout_1", 0, 0]]], "class_name": "Dense", "name": "fc2"}, {"config": {"trainable": true, "axis": 1, "momentum": 0.99, "beta_regularizer": null, "name": "batchnormalization_2", "mode": 0, "epsilon": 0.001, "gamma_regularizer": null}, "inbound_nodes": [[["fc2", 0, 0]]], "class_name": "BatchNormalization", "name": "batchnormalization_2"}, {"config": {"trainable": true, "p": 0.6, "name": "dropout_2"}, "inbound_nodes": [[["batchnormalization_2", 0, 0]]], "class_name": "Dropout", "name": "dropout_2"}, {"config": {"W_constraint": null, "name": "dense_2", "bias": true, "input_dim": 1000, "b_constraint": null, "trainable": true, "activation": "sigmoid", "b_regularizer": null, "W_regularizer": null, "activity_regularizer": null, "output_dim": 1, "init": "glorot_uniform"}, "inbound_nodes": [[["dropout_2", 0, 0]]], "class_name": "Dense", "name": "dense_2"}], "name": "model_1", "output_layers": [["dense_2", 0, 0]]}, "class_name": "Model"}